…
mespace(save_dir='logs/BASELINE', save_model=True, save_every=50, pretrain_ckpt=None, save_path='logs/BASELINE/ResNet'), model=Namespace(type='ResNet', SNRdB=10.0, spp=0.25, dim=96, img_shape=(256, 256), patch_shape=(2, 2), window_size=8, head_dims=(32, 32, 32, 32)))
2026-02-22 03:31:07;INFO;SUMMARY:
==========================================================================================
Layer (type:depth-idx)                   Output Shape              Param #
==========================================================================================
ResNet                                   [1, 130, 16, 16]          707,154
├─Sequential: 1-1                        [1, 16, 16, 130]          --
│    └─PatchEmbedding: 2-1               [1, 128, 128, 96]         1,440
│    └─resNetBlock: 2-2                  [1, 128, 128, 96]         30,144
│    └─resNetBlock: 2-3                  [1, 128, 128, 96]         30,144
│    └─PatchMerging: 2-4                 [1, 64, 64, 192]          74,496
│    └─resNetBlock: 2-5                  [1, 64, 64, 192]          120,192
│    └─resNetBlock: 2-6                  [1, 64, 64, 192]          120,192
│    └─PatchMerging: 2-7                 [1, 32, 32, 384]          296,448
│    └─resNetBlock: 2-8                  [1, 32, 32, 384]          480,000
│    └─resNetBlock: 2-9                  [1, 32, 32, 384]          480,000
│    └─resNetBlock: 2-10                 [1, 32, 32, 384]          480,000
│    └─resNetBlock: 2-11                 [1, 32, 32, 384]          480,000
│    └─resNetBlock: 2-12                 [1, 32, 32, 384]          480,000
│    └─resNetBlock: 2-13                 [1, 32, 32, 384]          480,000
│    └─PatchMerging: 2-14                [1, 16, 16, 768]          1,182,720
│    └─resNetBlock: 2-15                 [1, 16, 16, 768]          1,918,464
│    └─resNetBlock: 2-16                 [1, 16, 16, 768]          1,918,464
│    └─Linear: 2-17                      [1, 16, 16, 130]          99,970
├─AWGNChannel: 1-2                       [1, 16640]                --
├─Sequential: 1-3                        [5, 3, 256, 256]          --
│    └─Linear: 2-18                      [5, 16, 16, 768]          100,608
│    └─resNetBlock: 2-19                 [5, 16, 16, 768]          1,918,464
│    └─resNetBlock: 2-20                 [5, 16, 16, 768]          1,918,464
│    └─PatchReverse: 2-21                [5, 32, 32, 384]          1,181,184
│    └─resNetBlock: 2-22                 [5, 32, 32, 384]          480,000
│    └─resNetBlock: 2-23                 [5, 32, 32, 384]          480,000
│    └─resNetBlock: 2-24                 [5, 32, 32, 384]          480,000
│    └─resNetBlock: 2-25                 [5, 32, 32, 384]          480,000
│    └─resNetBlock: 2-26                 [5, 32, 32, 384]          480,000
│    └─resNetBlock: 2-27                 [5, 32, 32, 384]          480,000
│    └─PatchReverse: 2-28                [5, 64, 64, 192]          295,680
│    └─resNetBlock: 2-29                 [5, 64, 64, 192]          120,192
│    └─resNetBlock: 2-30                 [5, 64, 64, 192]          120,192
│    └─PatchReverse: 2-31                [5, 128, 128, 96]         74,112
│    └─resNetBlock: 2-32                 [5, 128, 128, 96]         30,144
│    └─resNetBlock: 2-33                 [5, 128, 128, 96]         30,144
│    └─PatchReconstruct: 2-34            [5, 3, 256, 256]          1,164
==========================================================================================
Total params: 18,050,176
Trainable params: 18,050,176
Non-trainable params: 0
Total mult-adds (Units.GIGABYTES): 24.53
==========================================================================================
Input size (MB): 0.79
Forward/backward pass size (MB): 956.57
Params size (MB): 69.37
Estimated Total Size (MB): 1026.73
…
