…
ir='logs/MULTIEXTRACT', save_model=True, save_every=50, pretrain_ckpt=None, save_path='logs/MULTIEXTRACT/ResNet'), model=Namespace(type='ResNet_multi', SNRdB=10.0, spp=0.25, dim=96, img_shape=(256, 256), patch_shape=(2, 2), window_size=8, head_dims=(32, 32, 32, 32)))
2026-02-23 06:35:21;INFO;SUMMARY:
==========================================================================================
Layer (type:depth-idx)                   Output Shape              Param #
==========================================================================================
ResNet_multi                             [1, 130, 16, 16]          19,794
├─ModuleList: 1-7                        --                        (recursive)
│    └─PatchEmbedding: 2-1               [1, 128, 128, 96]         1,440
├─ModuleList: 1-8                        --                        (recursive)
│    └─Sequential: 2-2                   [1, 128, 128, 96]         60,288
├─ModuleList: 1-7                        --                        (recursive)
│    └─PatchMerging: 2-3                 [2, 64, 64, 96]           37,632
├─ModuleList: 1-8                        --                        (recursive)
│    └─Sequential: 2-4                   [1, 64, 64, 96]           60,288
├─ModuleList: 1-7                        --                        (recursive)
│    └─PatchMerging: 2-5                 [3, 32, 32, 96]           37,632
├─ModuleList: 1-8                        --                        (recursive)
│    └─Sequential: 2-6                   [1, 32, 32, 96]           180,864
├─ModuleList: 1-7                        --                        (recursive)
│    └─PatchMerging: 2-7                 [4, 16, 16, 96]           37,632
├─ModuleList: 1-8                        --                        (recursive)
│    └─Sequential: 2-8                   [1, 16, 16, 96]           60,288
├─Sequential: 1-9                        [1, 16, 16, 130]          --
│    └─LayerNorm: 2-9                    [1, 16, 16, 480]          960
│    └─Linear: 2-10                      [1, 16, 16, 130]          62,530
├─AWGNChannel: 1-10                      [1, 16640]                --
├─Sequential: 1-11                       [1, 16, 16, 480]          --
│    └─Linear: 2-11                      [1, 16, 16, 480]          62,880
│    └─LayerNorm: 2-12                   [1, 16, 16, 480]          960
├─Sequential: 1-12                       [1, 16, 16, 480]          (recursive)
│    └─Linear: 2-13                      [1, 16, 16, 480]          (recursive)
│    └─LayerNorm: 2-14                   [1, 16, 16, 480]          (recursive)
├─Sequential: 1-13                       [1, 16, 16, 480]          (recursive)
│    └─Linear: 2-15                      [1, 16, 16, 480]          (recursive)
│    └─LayerNorm: 2-16                   [1, 16, 16, 480]          (recursive)
├─Sequential: 1-14                       [1, 16, 16, 480]          (recursive)
│    └─Linear: 2-17                      [1, 16, 16, 480]          (recursive)
│    └─LayerNorm: 2-18                   [1, 16, 16, 480]          (recursive)
├─Sequential: 1-15                       [1, 16, 16, 480]          (recursive)
│    └─Linear: 2-19                      [1, 16, 16, 480]          (recursive)
│    └─LayerNorm: 2-20                   [1, 16, 16, 480]          (recursive)
├─ModuleList: 1-54                       --                        (recursive)
│    └─Sequential: 2-21                  [1, 16, 16, 96]           78,816
├─ModuleList: 1-55                       --                        (recursive)
│    └─PatchReverse: 2-22                [4, 32, 32, 96]           37,056
├─ModuleList: 1-54                       --                        (recursive)
│    └─Sequential: 2-23                  [1, 32, 32, 96]           199,392
├─ModuleList: 1-55                       --                        (recursive)
│    └─PatchReverse: 2-24                [3, 64, 64, 96]           37,056
├─ModuleList: 1-54                       --                        (recursive)
│    └─Sequential: 2-25                  [1, 64, 64, 96]           78,816
├─ModuleList: 1-55                       --                        (recursive)
│    └─PatchReverse: 2-26                [2, 128, 128, 96]         37,056
├─ModuleList: 1-54                       --                        (recursive)
│    └─Sequential: 2-27                  [1, 128, 128, 96]         78,816
├─ModuleList: 1-55                       --                        (recursive)
│    └─PatchReconstruct: 2-28            [1, 3, 256, 256]          1,164
├─ModuleList: 1-54                       --                        (recursive)
│    └─Sequential: 2-29                  [1, 16, 16, 96]           (recursive)
├─ModuleList: 1-55                       --                        (recursive)
│    └─PatchReverse: 2-30                [4, 32, 32, 96]           (recursive)
├─ModuleList: 1-54                       --                        (recursive)
│    └─Sequential: 2-31                  [1, 32, 32, 96]           (recursive)
…
