…
d_batch_size=16, num_workers=16), logging=Namespace(save_dir='logs/methodcomp', save_model=True, save_every=50, pretrain_ckpt=None, save_path='logs/methodcomp/single'), model=Namespace(type='ResNet_single', SNRdB=10.0, spp=0.5, dim=96, img_shape=(256, 256), depth=4))
2026-03-04 07:34:09;INFO;SUMMARY:
==========================================================================================
Layer (type:depth-idx)                   Output Shape              Param #
==========================================================================================
ResNet_single                            [1, 3, 256, 256]          --
├─Linear: 1-1                            [1, 8]                    24
├─Conv2d: 1-2                            [1, 96, 128, 128]         2,688
├─Sequential: 1-3                        [1, 264, 16, 16]          --
│    └─Conv2d: 2-1                       [1, 96, 128, 128]         10,080
│    └─resNetBlock: 2-2                  [1, 96, 128, 128]         30,144
│    └─resNetBlock: 2-3                  [1, 96, 128, 128]         30,144
│    └─Conv2d: 2-4                       [1, 96, 64, 64]           83,040
│    └─resNetBlock: 2-5                  [1, 96, 64, 64]           30,144
│    └─resNetBlock: 2-6                  [1, 96, 64, 64]           30,144
│    └─Conv2d: 2-7                       [1, 96, 32, 32]           83,040
│    └─resNetBlock: 2-8                  [1, 96, 32, 32]           30,144
│    └─resNetBlock: 2-9                  [1, 96, 32, 32]           30,144
│    └─resNetBlock: 2-10                 [1, 96, 32, 32]           30,144
│    └─resNetBlock: 2-11                 [1, 96, 32, 32]           30,144
│    └─resNetBlock: 2-12                 [1, 96, 32, 32]           30,144
│    └─resNetBlock: 2-13                 [1, 96, 32, 32]           30,144
│    └─Conv2d: 2-14                      [1, 96, 16, 16]           83,040
│    └─resNetBlock: 2-15                 [1, 96, 16, 16]           30,144
│    └─resNetBlock: 2-16                 [1, 96, 16, 16]           30,144
│    └─Conv2d: 2-17                      [1, 264, 16, 16]          25,608
├─AWGNChannel: 1-4                       [1, 12288]                --
├─Sequential: 1-5                        [1, 3, 256, 256]          --
│    └─Conv2d: 2-18                      [1, 96, 16, 16]           26,208
│    └─resNetBlock: 2-19                 [1, 96, 16, 16]           30,144
│    └─resNetBlock: 2-20                 [1, 96, 16, 16]           30,144
│    └─ConvTranspose2d: 2-21             [1, 96, 32, 32]           83,040
│    └─resNetBlock: 2-22                 [1, 96, 32, 32]           30,144
│    └─resNetBlock: 2-23                 [1, 96, 32, 32]           30,144
│    └─resNetBlock: 2-24                 [1, 96, 32, 32]           30,144
│    └─resNetBlock: 2-25                 [1, 96, 32, 32]           30,144
│    └─resNetBlock: 2-26                 [1, 96, 32, 32]           30,144
│    └─resNetBlock: 2-27                 [1, 96, 32, 32]           30,144
│    └─ConvTranspose2d: 2-28             [1, 96, 64, 64]           83,040
│    └─resNetBlock: 2-29                 [1, 96, 64, 64]           30,144
│    └─resNetBlock: 2-30                 [1, 96, 64, 64]           30,144
│    └─ConvTranspose2d: 2-31             [1, 96, 128, 128]         83,040
│    └─resNetBlock: 2-32                 [1, 96, 128, 128]         30,144
│    └─resNetBlock: 2-33                 [1, 96, 128, 128]         30,144
│    └─ConvTranspose2d: 2-34             [1, 3, 256, 256]          2,595
==========================================================================================
Total params: 1,288,899
Trainable params: 1,288,899
Non-trainable params: 0
Total mult-adds (Units.GIGABYTES): 5.50
==========================================================================================
Input size (MB): 0.79
Forward/backward pass size (MB): 194.40
Params size (MB): 5.16
Estimated Total Size (MB): 200.34
…
