…
 num_workers=16), logging=Namespace(save_dir='logs/methodcomp', save_model=True, save_every=50, pretrain_ckpt=None, save_path='logs/methodcomp/baseline_group'), model=Namespace(type='ResNet_baseline_group', SNRdB=10.0, spp=0.5, dim=96, img_shape=(256, 256), depth=4))
2026-03-03 22:51:03;INFO;SUMMARY:
==========================================================================================
Layer (type:depth-idx)                   Output Shape              Param #
==========================================================================================
ResNet_baseline_group                    [1, 3, 256, 256]          --
├─Linear: 1-1                            [1, 8]                    24
├─Conv2d: 1-2                            [1, 96, 128, 128]         2,688
├─Sequential: 1-3                        [1, 264, 16, 16]          --
│    └─Conv2d: 2-1                       [1, 96, 128, 128]         10,080
│    └─resNetBlock: 2-2                  [1, 96, 128, 128]         30,144
│    └─resNetBlock: 2-3                  [1, 96, 128, 128]         30,144
│    └─Conv2d: 2-4                       [1, 192, 64, 64]          166,080
│    └─resNetBlock: 2-5                  [1, 192, 64, 64]          60,288
│    └─resNetBlock: 2-6                  [1, 192, 64, 64]          60,288
│    └─Conv2d: 2-7                       [1, 384, 32, 32]          332,160
│    └─resNetBlock: 2-8                  [1, 384, 32, 32]          120,576
│    └─resNetBlock: 2-9                  [1, 384, 32, 32]          120,576
│    └─resNetBlock: 2-10                 [1, 384, 32, 32]          120,576
│    └─resNetBlock: 2-11                 [1, 384, 32, 32]          120,576
│    └─resNetBlock: 2-12                 [1, 384, 32, 32]          120,576
│    └─resNetBlock: 2-13                 [1, 384, 32, 32]          120,576
│    └─Conv2d: 2-14                      [1, 768, 16, 16]          664,320
│    └─resNetBlock: 2-15                 [1, 768, 16, 16]          241,152
│    └─resNetBlock: 2-16                 [1, 768, 16, 16]          241,152
│    └─Conv2d: 2-17                      [1, 264, 16, 16]          203,016
├─AWGNChannel: 1-4                       [1, 12288]                --
├─Sequential: 1-5                        [1, 3, 256, 256]          --
│    └─Conv2d: 2-18                      [1, 768, 16, 16]          209,664
│    └─resNetBlock: 2-19                 [1, 768, 16, 16]          241,152
│    └─resNetBlock: 2-20                 [1, 768, 16, 16]          241,152
│    └─ConvTranspose2d: 2-21             [1, 384, 32, 32]          663,936
│    └─resNetBlock: 2-22                 [1, 384, 32, 32]          120,576
│    └─resNetBlock: 2-23                 [1, 384, 32, 32]          120,576
│    └─resNetBlock: 2-24                 [1, 384, 32, 32]          120,576
│    └─resNetBlock: 2-25                 [1, 384, 32, 32]          120,576
│    └─resNetBlock: 2-26                 [1, 384, 32, 32]          120,576
│    └─resNetBlock: 2-27                 [1, 384, 32, 32]          120,576
│    └─ConvTranspose2d: 2-28             [1, 192, 64, 64]          331,968
│    └─resNetBlock: 2-29                 [1, 192, 64, 64]          60,288
│    └─resNetBlock: 2-30                 [1, 192, 64, 64]          60,288
│    └─ConvTranspose2d: 2-31             [1, 96, 128, 128]         165,984
│    └─resNetBlock: 2-32                 [1, 96, 128, 128]         30,144
│    └─resNetBlock: 2-33                 [1, 96, 128, 128]         30,144
│    └─ConvTranspose2d: 2-34             [1, 3, 256, 256]          2,595
==========================================================================================
Total params: 5,525,763
Trainable params: 5,525,763
Non-trainable params: 0
Total mult-adds (Units.GIGABYTES): 11.13
==========================================================================================
Input size (MB): 0.79
Forward/backward pass size (MB): 300.96
Params size (MB): 22.10
Estimated Total Size (MB): 323.85
…
