…
d_batch_size=16, num_workers=16), logging=Namespace(save_dir='logs/methodcomp', save_model=True, save_every=50, pretrain_ckpt=None, save_path='logs/methodcomp/multi2'), model=Namespace(type='ResNet_multi2', SNRdB=10.0, spp=0.5, dim=96, img_shape=(256, 256), depth=4))
2026-03-04 23:29:27;INFO;SUMMARY:
==========================================================================================
Layer (type:depth-idx)                   Output Shape              Param #
==========================================================================================
ResNet_multi2                            [1, 3, 256, 256]          --
├─Linear: 1-1                            [1, 8]                    24
├─ModuleList: 1-9                        --                        (recursive)
│    └─Conv2d: 2-1                       [1, 96, 128, 128]         2,688
├─Conv2d: 1-3                            [1, 96, 128, 128]         10,080
├─ModuleList: 1-10                       --                        (recursive)
│    └─Sequential: 2-2                   [1, 96, 128, 128]         60,288
├─ModuleList: 1-9                        --                        (recursive)
│    └─Conv2d: 2-3                       [1, 96, 64, 64]           83,040
│    └─Conv2d: 2-4                       [1, 96, 64, 64]           (recursive)
├─ModuleList: 1-10                       --                        (recursive)
│    └─Sequential: 2-5                   [1, 96, 64, 64]           60,288
├─ModuleList: 1-9                        --                        (recursive)
│    └─Conv2d: 2-6                       [1, 96, 32, 32]           83,040
│    └─Conv2d: 2-7                       [1, 96, 32, 32]           (recursive)
│    └─Conv2d: 2-8                       [1, 96, 32, 32]           (recursive)
├─ModuleList: 1-10                       --                        (recursive)
│    └─Sequential: 2-9                   [1, 96, 32, 32]           60,288
├─ModuleList: 1-9                        --                        (recursive)
│    └─Conv2d: 2-10                      [1, 96, 16, 16]           83,040
│    └─Conv2d: 2-11                      [1, 96, 16, 16]           (recursive)
│    └─Conv2d: 2-12                      [1, 96, 16, 16]           (recursive)
│    └─Conv2d: 2-13                      [1, 96, 16, 16]           (recursive)
├─ModuleList: 1-10                       --                        (recursive)
│    └─Sequential: 2-14                  [1, 96, 16, 16]           60,288
├─Conv2d: 1-11                           [1, 264, 16, 16]          101,640
├─AWGNChannel: 1-12                      [1, 12288]                --
├─Conv2d: 1-13                           [1, 384, 16, 16]          104,832
├─ModuleList: 1-20                       --                        (recursive)
│    └─Sequential: 2-15                  [1, 96, 16, 16]           78,816
├─ModuleList: 1-21                       --                        (recursive)
│    └─ConvTranspose2d: 2-16             [1, 96, 32, 32]           83,040
│    └─ConvTranspose2d: 2-17             [1, 96, 32, 32]           (recursive)
│    └─ConvTranspose2d: 2-18             [1, 96, 32, 32]           (recursive)
│    └─ConvTranspose2d: 2-19             [1, 96, 32, 32]           (recursive)
├─ModuleList: 1-20                       --                        (recursive)
│    └─Sequential: 2-20                  [1, 96, 32, 32]           78,816
├─ModuleList: 1-21                       --                        (recursive)
│    └─ConvTranspose2d: 2-21             [1, 96, 64, 64]           83,040
│    └─ConvTranspose2d: 2-22             [1, 96, 64, 64]           (recursive)
│    └─ConvTranspose2d: 2-23             [1, 96, 64, 64]           (recursive)
├─ModuleList: 1-20                       --                        (recursive)
│    └─Sequential: 2-24                  [1, 96, 64, 64]           78,816
├─ModuleList: 1-21                       --                        (recursive)
│    └─ConvTranspose2d: 2-25             [1, 96, 128, 128]         83,040
│    └─ConvTranspose2d: 2-26             [1, 96, 128, 128]         (recursive)
├─ModuleList: 1-20                       --                        (recursive)
│    └─Sequential: 2-27                  [1, 96, 128, 128]         78,816
├─ModuleList: 1-21                       --                        (recursive)
│    └─ConvTranspose2d: 2-28             [1, 3, 256, 256]          2,595
==========================================================================================
Total params: 1,276,515
Trainable params: 1,276,515
Non-trainable params: 0
Total mult-adds (Units.GIGABYTES): 8.56
==========================================================================================
Input size (MB): 0.79
Forward/backward pass size (MB): 225.66
Params size (MB): 5.11
Estimated Total Size (MB): 231.55
…
